# YOLOv5 🚀 by Ultralytics, GPL-3.0 license

# Parameters
nc: 10  # number of classes
depth_multiple: 0.33  # model depth multiple
width_multiple: 0.50  # layer channel multiple
anchors:
  - [10,13, 16,30, 33,23]  # P3/8
  - [30,61, 62,45, 59,119]  # P4/16
  - [116,90, 156,198, 373,326]  # P5/32

# YOLOv5 v6.0 backbone
backbone:
  # [from, number, module, args]
  [[-1, 1, Conv, [64, 6, 2, 2]],  # 0-P1/2
   [-1, 1, Conv, [128, 3, 2]],  # 1-P2/4
   [-1, 3, C3, [128]],
   [-1, 1, Conv, [256, 3, 2]],  # 3-P3/8
   [-1, 6, C3, [256]],
   [-1, 1, Conv, [512, 3, 2]],  # 5-P4/16
   [-1, 9, C3, [512]],
   [-1, 1, Conv, [1024, 3, 2]],  # 7-P5/32
   [-1, 3, C3, [1024]],
   [-1, 1, SPPF, [1024, 5]],  # 9
  ]

# YOLOv5 v6.0 head
head:
  [[4, 1, Conv, [64, 1, 1]], #10
   [6, 1, Conv, [128, 1, 1]], 
   [9, 1, Conv, [256, 1, 1]], #12
  
   [[10, 11, 12], 1, ASFF_CAimprove_3, [64, 0]], 
   [[10, 11, 12], 1, ASFF_CAimprove_3, [128, 1]],
   [[10, 11, 12], 1, ASFF_CAimprove_3, [256, 2]], #15
   
   [-3, 1, C3, [64]], #16
   [-3, 1, C3, [128]],
   [-3, 1, C3, [256]], 
   
   [[-1, 17, 16], 1, Bifusion_1, [128]],
   [-1, 3, C3, [128, False]],  # 20

   [[-1, 17, 16], 1, Bifusion_2, [64]],
   [-1, 3, C3, [64, False]],  # 22 (P3/8-small) 
   
   [[22, 20], 1, ASFF_CAimprove_2, [64, 0]], #23
   [[22, 20], 1, ASFF_CAimprove_2, [128, 1]], 
 
   [-2, 1, C3, [64]], #25
   [-2, 1, C3, [128]],
    
   [-2, 1, Conv, [256, 1, 1]], #27
   [-2, 1, Conv, [512, 1, 1]],
   [18, 1, Conv, [1024, 1, 1]],

   [[27, 28, 29], 1, Detect, [nc, anchors]],  # Detect(P3, P4, P5)
  ]