# YOLOv5 🚀 by Ultralytics, GPL-3.0 license

# Parameters
nc: 10  # number of classes
depth_multiple: 0.33  # model depth multiple
width_multiple: 0.50  # layer channel multiple
anchors:
  - [4,5, 8,10, 22,18]  # P2/4
  - [10,13, 16,30, 33,23]  # P3/8
  - [30,61, 62,45, 59,119]  # P4/16
  - [116,90, 156,198, 373,326]  # P5/32

# YOLOv5 v6.0 backbone
backbone:
  # [from, number, module, args]
  [[-1, 1, Conv, [64, 6, 2, 2]],  # 0-P1/2
   [-1, 1, Conv, [128, 3, 2]],  # 1-P2/4
   [-1, 3, C3, [128]],
   [-1, 1, Conv, [256, 3, 2]],  # 3-P3/8
   [-1, 6, C3, [256]],
   [-1, 1, Conv, [512, 3, 2]],  # 5-P4/16
   [-1, 9, C3, [512]],
   [-1, 1, Conv, [1024, 3, 2]],  # 7-P5/32
   [-1, 3, C3, [1024]],
   [-1, 1, SPPF, [1024, 5]],  # 9
  ]

# YOLOv5 v6.0 head
head:
  [[2, 1, Conv, [32, 1, 1]], #10
   [4, 1, Conv, [64, 1, 1]], 
   [6, 1, Conv, [128, 1, 1]], 
   [9, 1, Conv, [256, 1, 1]], #13
  
   [[10, 11, 12, 13], 1, ASFF_bica4_4, [32, 0]],
   [[10, 11, 12, 13], 1, ASFF_bica4_4, [64, 1]], 
   [[10, 11, 12, 13], 1, ASFF_bica4_4, [128, 2]],
   [[10, 11, 12, 13], 1, ASFF_bica4_4, [256, 3]], #17
   
   [-4, 1, BasicBlock_n, [32]], #18
   [-4, 1, BasicBlock_n, [64]], 
   [-4, 1, BasicBlock_n, [128]],
   [-4, 1, BasicBlock_n, [256]], 
   
   [[-1, 20, 19], 1, Bifusion_1, [128]],
   [-1, 3, C3, [128, False]],  # 23

   [[-1, 20, 19], 1, Bifusion_2, [64]],
   [-1, 3, C3, [64, False]],  # 25 (P3/8-small)
   
   [[-1, 19, 18], 1, Bifusion_2, [32]],
   [-1, 3, C3, [32, False]],  # 27 (P3/8-small)
   
   [[27, 25, 23], 1, ASFF_bica4_3, [32, 0]], 
   [[27, 25, 23], 1, ASFF_bica4_3, [64, 1]],
   [[27, 25, 23], 1, ASFF_bica4_3, [128, 2]], #30 
   
   [-3, 1, BasicBlock_n, [32]], #31
   [-3, 1, BasicBlock_n, [64]],
   [-3, 1, BasicBlock_n, [128]], 
   
   [[31, 32], 1, ASFF_bica4_2, [32, 0]], #34
   [[31, 32], 1, ASFF_bica4_2, [64, 1]], 
 
   [-2, 1, BasicBlock_n, [32]], #36
   [-2, 1, BasicBlock_n, [64]],
    
   [-2, 1, Conv, [128, 1, 1]], #38
   [-2, 1, Conv, [256, 1, 1]], 
   [33, 1, Conv, [512, 1, 1]],
   [21, 1, Conv, [1024, 1, 1]],

   [[38, 39, 40, 41], 1, Detect, [nc, anchors]],  # Detect(P3, P4, P5)
  ]